model_save/HHSR.pth (torch, 13314 bytes, 8 tensors)

weight f4 [1, 1, 3, 3]
0	0x3e9c4250	0.30519342
1	0xbdae351c	-0.085062236
2	0xbdd6b059	-0.104828544
3	0x3ea005db	0.31254467
4	0x3e9eaa39	0.30989245
5	0x3e82f757	0.2557933
6	0x3e5866cc	0.21132964
7	0x3d6ee4b9	0.058323596
8	0x3da9b806	0.08287053

weight f4 [8, 5, 5, 5]
0	0x3d86e42a	0.065864876
1	0x3d469193	0.048478674
2	0x3d214ead	0.03938167
3	0xbbaaf2d5	-0.005216936
4	0xbd49c416	-0.049259268
5	0x3c365178	0.011127822
6	0xbcf4741b	-0.02984052
7	0x3d17865a	0.036993362
8	0xbdce06ac	-0.10059866
9	0x3d71e83e	0.059059374
10	0x3d8c98ae	0.06865059
11	0x3c04c679	0.00810396
12	0xbd0b8089	-0.034058128
13	0x3d60c3cd	0.05487423
14	0xbd143542	-0.036183603
15	0xbd2f919c	-0.042863473
16	0xbd3ef7a4	-0.046622887
17	0xbd4185ce	-0.047246747
18	0xbdd97bd1	-0.10619319
19	0xbbd3682d	-0.0064516277
20	0x3d9831ba	0.074313596
21	0x3d1b495c	0.037911758
22	0x3d16c1ab	0.03680579
23	0x3c8f683f	0.017505763
24	0xbb6528fe	-0.003496706
25	0xbd8d0000	-0.068847656
26	0xbd9a1d68	-0.0752514
27	0xbd053bd2	-0.032527752
28	0x3d63fa51	0.055658642
29	0xbd7fcaa5	-0.062449116
30	0x3cea651a	0.028612662
31	0xbd6013bc	-0.05470632
32	0x3d5be839	0.05368826
33	0xbdac48d9	-0.08412332
34	0xbd9cf52e	-0.07663952
35	0x3db4c25f	0.08826136
36	0xbda1b0b7	-0.07895034
37	0x3c00b411	0.007855431
38	0x3d7fa094	0.062409
39	0x3ced3b89	0.028959053
40	0x3d8c88c3	0.06862023
41	0xbc72c220	-0.014816791
42	0x3d9b8930	0.07594526
43	0x3b03aeee	0.002009328
44	0x3da4c5aa	0.08045514
45	0x3ca8be03	0.020598417
46	0x3d898869	0.06715471
47	0xbda427ba	-0.0801539
48	0x3cad8549	0.02118172
49	0xbcb091a0	-0.021553814
50	0x3d1ae820	0.037819028
51	0xbc0652d6	-0.008198461
52	0xbc6a9c21	-0.014319451
53	0xbd8c9b17	-0.068655185
54	0x3cd0725d	0.025445158
55	0xbd31e1df	-0.043428298
56	0xbd52d400	-0.05147171
57	0xbd413e29	-0.04717842
58	0x3d4820eb	0.048859518
59	0xbd9713b1	-0.07376803
60	0xbc50feab	-0.01275603
61	0xbd11e434	-0.035618022
62	0x3c4b0e82	0.012393596
63	0x3c39c8c6	0.011339372
64	0xbcc157a1	-0.023601355
65	0xbd8fab73	-0.07015123
66	0xbda4135d	-0.08011506
67	0xbcf76680	-0.030200243
68	0x3d4d379f	0.050101873
69	0xbd73dd9b	-0.05953751
70	0xbd819002	-0.063262954
71	0xbd977a9d	-0.073964335
72	0xbc197f2a	-0.009368697
73	0xbd85a799	-0.06526107
74	0x3d59851d	0.053105462
75	0x3db817c9	0.08988912
76	0x3d8f597b	0.06999489
77	0x3d24b676	0.04021307
78	0xbd48edf1	-0.049055044
79	0x3c5c4198	0.013443373
80	0x3d39fbc5	0.04540612
81	0x3c1d13fe	0.009587286
82	0xbd9ab32f	-0.07553708
83	0xbd0f5e88	-0.03500226
84	0xbda1507c	-0.07876679
85	0xbd8760b7	-0.06610244
86	0x3d30a29d	0.04312383
87	0xbd295bd1	-0.04134733
88	0x3da22ec4	0.07919076
89	0x3d9665f6	0.07343666
90	0xbd7348f8	-0.05939576
91	0xbd88d8c6	-0.06681971
92	0xbca713f0	-0.02039525
93	0xbbfc7f97	-0.0077056396
94	0x3d468d19	0.048474405
95	0x3cc1d539	0.023661243
96	0x3d85bb72	0.06529893
97	0x3c8c4973	0.017124867
98	0x3d9b8f03	0.07595637
99	0x3d1766ed	0.036963392
100	0x3cd3a590	0.025835782
101	0xbd82b560	-0.06382251
102	0xbd9a6505	-0.07538799
103	0xbd0e9df0	-0.03481859
104	0x3d567225	0.05235495
105	0x3cf99467	0.030466272
106	0x3d80e44e	0.06293546
107	0x3d1de9bf	0.038552996
108	0x3c8e9ec7	0.017409695
109	0xbda22367	-0.07916909
110	0xbd9fd508	-0.07804304
111	0xbc73621a	-0.014854932
112	0xbb900d0e	-0.0043960875
113	0xbbc7bad5	-0.00609527
114	0x3d727926	0.059197567
115	0x3d25b834	0.040458873
116	0x3d14b9b1	0.0363099
117	0xbd89170a	-0.066938475
118	0x3db03d5a	0.08605452
119	0xbc5b9488	-0.013402112
120	0xbd5cc5f9	-0.05389974
121	0x3ca7012d	0.020386303
122	0xbd15356d	-0.036427904
123	0x3d8c46ac	0.06849417
124	0x3d089b14	0.03335102
125	0xbe05a7fe	-0.13052365
126	0x3c23de1b	0.010001685
127	0xbd827d5b	-0.06371566
128	0x3c64560e	0.013936533
129	0xbdc7efb9	-0.0976252
130	0xbbc233f1	-0.005926602
131	0xbdb39a5f	-0.08769678
132	0xbdb1947c	-0.08670899
133	0xbdd2e496	-0.102975056
134	0x3d542edb	0.051802497
135	0xbd0eb068	-0.034836203
136	0xbc0bc0f1	-0.008529888
137	0xbccade63	-0.024764245
138	0xbd9b3d25	-0.07580022
139	0x3cee0615	0.029055635
140	0xbd920123	-0.07129123
141	0xbdb0339d	-0.086035945
142	0x3cf62b7d	0.030050034
143	0xbdb712c3	-0.089391254
144	0x3d75e86b	0.060036104
145	0xbc8c7e18	-0.01714997
146	0xbdd45f5d	-0.103697516
147	0xbd1efabb	-0.038813334
148	0x3c2e15a8	0.01062528
149	0x3c868fee	0.016426053
150	0x3d971aa0	0.07378125
151	0x3ccd5adc	0.02506774
152	0x3d4ddf5f	0.05026185
153	0x3d662dbd	0.056195963
154	0x3ca8c442	0.020601396
155	0x3d349d78	0.044095486
156	0xbd97f09b	-0.07418939
157	0x3cf7b332	0.030236814
158	0x3bff1fdb	0.00778578
159	0xbb73d063	-0.0037203066
160	0xbd896ad3	-0.06709828
161	0xbcdf5497	-0.027262015
162	0xbdba4cb7	-0.090966634
163	0x3cc56b85	0.02409912
164	0xbccf0d1e	-0.02527481
165	0xbda4128d	-0.08011351
166	0xbdad7ce0	-0.08471084
167	0x3d8082da	0.06274958
168	0x3d87277c	0.06599328
169	0x3b0ed394	0.002179359
170	0xbd79716d	-0.060899187
171	0x3d8ea119	0.06964321
172	0x3a00320a	0.0004890269
173	0x3cc5aea7	0.024131132
174	0x3d664c39	0.056225035
175	0xbc7d68d1	-0.015466885
176	0x3bb22f9b	0.005437804
177	0x3d22d4ef	0.03975385
178	0xbcabfab1	-0.020993562
179	0xbd135e69	-0.03597871
180	0x3cdc9903	0.02692843
181	0xbce95fd0	-0.02848807
182	0x3d5743dc	0.05255495
183	0x3d9f44eb	0.07776817
184	0xbdb5a953	-0.08870187
185	0xbdbe3dd1	-0.09289134
186	0x3ca7a96d	0.02046653
187	0xbdc7eb8b	-0.09761723
188	0xbdb3c46c	-0.08777699
189	0xbd97e732	-0.07417144
190	0xbd68484f	-0.056709584
191	0xbd5ecc0a	-0.054393806
192	0xbd757f1d	-0.059935678
193	0xbda0677d	-0.07832239
194	0x3d1601de	0.036622874
195	0x3cd0cb15	0.025487462
196	0xbd3e8074	-0.04650922
197	0x3bc4d812	0.006007203
198	0x3d82d143	0.0638757
199	0xbd1488e9	-0.03626338
200	0xbcaf6511	-0.021410497
201	0x3c17a452	0.009255486
202	0xbd1e56b3	-0.0386569
203	0xbd615ab2	-0.055018134
204	0xbd60c86b	-0.054878633
205	0x3cf06bd4	0.029348291
206	0xbd5b09c7	-0.05347612
207	0x3ce67610	0.028132468
208	0x3ccc6ecb	0.024955174
209	0xbd9bcbb5	-0.076072134
210	0xbd899ab4	-0.067189604
211	0x3d6085ef	0.05481523
212	0xbd78e79c	-0.060767755
213	0x3c3d1545	0.011540716
214	0x3db8255d	0.089915015
215	0xbd181f6c	-0.03713934
216	0xbd0c72ff	-0.034289356
217	0xbd6cacfc	-0.05778216
218	0xbd537545	-0.05162551
219	0xbd9fe506	-0.07807355
220	0x3d217a88	0.039423496
221	0x3c494a2d	0.012285751
222	0x3d667cb1	0.05627126
223	0x3cd91267	0.026498033
224	0x3dab7c35	0.083733
225	0xbb8e465c	-0.0043418836
226	0xbd4086f1	-0.04700369
227	0xbca78985	-0.020451317
228	0x3da5a80e	0.080886945
229	0x3d215329	0.03938595
230	0xbc385d1b	-0.011252667
231	0x3745fe8b	1.180138e-05
232	0x3cb0ce0d	0.021582628
233	0xbc934a55	-0.01797978
234	0x3cb51bd4	0.022107996
235	0x3da7cab3	0.08192959
236	0xbb41574b	-0.0029501494
237	0x3d0ab31c	0.03386222
238	0x3d805492	0.062661305
239	0xbd792ddb	-0.060834747
240	0x3bcb06da	0.006195885
241	0x3d5bbe66	0.053648375
242	0xbd150711	-0.036383692
243	0x3cc919e0	0.024548471
244	0xbc284b29	-0.010271826
245	0x3d3948cf	0.04523545
246	0xbcb121ff	-0.021622656
247	0xbd8bc02b	-0.068237625
248	0x3dae0817	0.08497637
249	0x3c6ecb1c	0.014574792
250	0xbc4305c0	-0.011903226
251	0xbd112587	-0.03543618
252	0xbcf6ea0f	-0.030140905
253	0xbd3335e0	-0.04375255
254	0xbb980777	-0.0046395618
255	0x3d601dc4	0.054715887

bias f4 [8]
0	0xbd5c46a6	-0.053778313
1	0x3da11255	0.07864825
2	0x3d66fc26	0.05639281
3	0x3d544db2	0.05183191
4	0x3dbe1d8d	0.0928298
5	0xbdb5fff2	-0.08886708
6	0xbcc02493	-0.02345494
7	0xbd22d80d	-0.039756823

weight f4 [1, 8, 5, 5]
0	0xbaff40a9	-0.0019474226
1	0xbc7f4ac4	-0.01558179
2	0x3d6c67c1	0.057716135
3	0xbba9e1bd	-0.005184381
4	0x3d0cbc1f	0.034359094
5	0xbd927e81	-0.07153035
6	0x3d5ded01	0.054181103
7	0x3bb2cc28	0.005456466
8	0xbcb5fe16	-0.022215884
9	0xbb3ddefd	-0.0028972023
10	0x3d703880	0.058647633
11	0x3d0624df	0.032750007
12	0xbd68e8f6	-0.056862794
13	0xbd726a17	-0.059183206
14	0xbd906e97	-0.07052343
15	0xbd01496f	-0.031564172
16	0xbca08652	-0.019595299
17	0xbcebb25a	-0.028771568
18	0x3d3161f1	0.043306295
19	0xbd301fbb	-0.04299901
20	0x3a1a8482	0.0005894379
21	0xbca87bf2	-0.020566914
22	0xbc2cd7fb	-0.010549541
23	0x3d4eb9ca	0.05047015
24	0xbc44065f	-0.01196441
25	0x3d1061a1	0.035249356
26	0xb9960df1	-0.00028620617
27	0x3b9eca3c	0.0048458856
28	0xbc372e12	-0.011180418
29	0x3d62a968	0.05533734
30	0x3d253bb3	0.040340137
31	0x3d803dca	0.06261785
32	0xbd30a26b	-0.043123644
33	0x3d7de3ba	0.061984755
34	0xbcd397f2	-0.02582929
35	0xbd30b3a5	-0.043140072
36	0xbd1ae0c9	-0.037812028
37	0x3b0b3c04	0.002124549
38	0xbcd6cbcb	-0.026220223
39	0xbbe4119e	-0.006960108
40	0x3d287944	0.041131273
41	0x3d92acbd	0.071618535
42	0x3c9fc15b	0.019501379
43	0x3d3be6fe	0.04587459
44	0xbcaae847	-0.020862712
45	0x3bc13673	0.0058963834
46	0x3c334585	0.010941868
47	0x3c8523d9	0.016252445
48	0xbd752430	-0.059848964
49	0xbd8bf06e	-0.06832968
50	0x3d59ad16	0.053143583
51	0x3d351c54	0.04421647
52	0xbcb23912	-0.021755729
53	0x3c380c08	0.011233337
54	0x3d830793	0.06397929
55	0x3d72c884	0.059273258
56	0xbb547410	-0.0032417811
57	0x3d8278ef	0.063707225
58	0xbc5a6ace	-0.013331128
59	0xbb76a0e4	-0.003763252
60	0x3d4efc5b	0.050533634
61	0xbd8f85a7	-0.07007914
62	0xbd7fdcd3	-0.062466454
63	0xbcabf77c	-0.020992033
64	0x3c4f5171	0.0126536945
65	0xbd1fa9cc	-0.03898029
66	0xbd39e8ca	-0.04538802
67	0xbcde84f3	-0.027163005
68	0xbcb273e6	-0.02178378
69	0x3d1cf3c2	0.038318403
70	0x3cfa2078	0.03053306
71	0xbc86467e	-0.016391035
72	0xbcc3a537	-0.023882492
73	0x3d71c451	0.059025113
74	0xbd65afb5	-0.05607577
75	0x3c5d6cc8	0.013514705
76	0x3d8e4c83	0.06948187
77	0x3d6a0944	0.057137743
78	0xbd008908	-0.031380683
79	0xbd1b2282	-0.037874706
80	0x3cb476ec	0.022029363
81	0xbd2fe285	-0.042940635
82	0xbd903974	-0.07042208
83	0xbd7ee8f2	-0.062233873
84	0x3b48f468	0.0030663256
85	0xbd8faa86	-0.07014947
86	0xbd6f71b9	-0.058458064
87	0xbd81323b	-0.06308409
88	0x3d5bc6ed	0.053656507
89	0xbd4959d4	-0.049157932
90	0x3cf9051d	0.030397946
91	0xbc8dc6fc	-0.017306797
92	0xbbd4848a	-0.0064855264
93	0x3d031cb1	0.032009784
94	0xbd5fc5aa	-0.054631867
95	0x3c94105a	0.018074203
96	0x3d10e166	0.035371207
97	0x3d1956e3	0.037436377
98	0xbca76f05	-0.02043868
99	0x3ca13d60	0.019682586
100	0x3cac7711	0.021052869
101	0xbd5d455c	-0.054021224
102	0xbcab8091	-0.020935329
103	0x3d206da6	0.03916707
104	0x3d7d0c39	0.061779235
105	0x3d47871d	0.04871284
106	0xbb1348b7	-0.0022473761
107	0x3d77c6e6	0.06049242
108	0xbd2e0b50	-0.042491257
109	0xbb0d2bd9	-0.0021541028
110	0xbd71b5a4	-0.059011117
111	0x3d37422f	0.044740852
112	0xbcf5586b	-0.029949388
113	0xbc6012da	-0.01367637
114	0xbb0d4aa0	-0.0021559373
115	0x3c870ec8	0.01648654
116	0x3d3fad9d	0.04679643
117	0x3c929258	0.017892048
118	0x3d104b35	0.035227973
119	0x3d40fc5c	0.04711567
120	0xbd163776	-0.036673985
121	0xbd9071fb	-0.0705299
122	0x3d3f08d1	0.046639267
123	0xbd80cba0	-0.062888384
124	0x3d29c3b6	0.04144641
125	0x398b7cf8	0.00026605255
126	0xbca321e1	-0.019913616
127	0xbceb14af	-0.028696386
128	0xbdb3f0aa	-0.087861374
129	0x3d1468f9	0.036232922
130	0x3c52045d	0.012818423
131	0x3c5a99b3	0.013342309
132	0xbab26f22	-0.0013613442
133	0xbd8791f5	-0.06619636
134	0x3ce3cc9f	0.027807532
135	0xbd39e19b	-0.04538117
136	0xbcbda1bd	-0.023148412
137	0xbd094ecf	-0.033522423
138	0xbd3bf426	-0.045887135
139	0x3bf37574	0.007429773
140	0xbd59dae9	-0.053187285
141	0x3cfd433f	0.030915854
142	0xbcf49320	-0.02985531
143	0xbc753508	-0.014966257
144	0xbcfe62f9	-0.031053053
145	0x3d1fcba2	0.03901256
146	0xbbed2743	-0.0072373464
147	0xbd8def84	-0.069304496
148	0xbda143e5	-0.07874278
149	0xbdc3b600	-0.09556198
150	0xbd304dab	-0.04304282
151	0xbce09f12	-0.0274196
152	0x3d578f07	0.052626636
153	0x3b8b042e	0.0042424416
154	0x3ce28994	0.027653493
155	0x3c8e2620	0.017352164
156	0x3d80f82f	0.06297337
157	0x3d7357af	0.059409793
158	0x3d19aac2	0.037516363
159	0xbc874a1c	-0.01651483
160	0xbd2a3b4f	-0.041560467
161	0x3d33e986	0.043923877
162	0x3d008702	0.031378753
163	0xbd48a1f0	-0.04898256
164	0xbda2d4ea	-0.079507664
165	0xbd4f6fd5	-0.05064376
166	0x3d0a21be	0.033723585
167	0x3d491088	0.04908803
168	0xbda75277	-0.08170026
169	0x3c6ba824	0.01438335
170	0x3d4aaa9e	0.04947912
171	0xbc695bdf	-0.014243095
172	0x3cb2f3aa	0.021844704
173	0xbd0f93be	-0.035053007
174	0xba523e21	-0.0008020122
175	0xbd6fbe7d	-0.058531273
176	0xbcad59ad	-0.021160925
177	0x3c17fe9d	0.009277013
178	0x3d6e4db6	0.05817958
179	0xbcd27cce	-0.025694277
180	0xbcfa5f6f	-0.030563084
181	0x3d032dcf	0.03202611
182	0xbd20c9fc	-0.039255127
183	0xbbb67840	-0.005568534
184	0xbd6cc6c1	-0.057806734
185	0xbc6bdf24	-0.014396463
186	0xbbdac726	-0.0066765724
187	0xbd95fe34	-0.07323876
188	0x3cd4fd51	0.025999697
189	0x3d10840e	0.035282187
190	0x3d12daaa	0.035853066
191	0xbd90c237	-0.070682935
192	0xbd071a20	-0.0329839
193	0x3d6e7396	0.0582157
194	0xbd6a4185	-0.05719139
195	0xbd960ab9	-0.07326264
196	0x3cfef886	0.031124365
197	0x3d5a3ce4	0.053280726
198	0xbd5806ec	-0.052740976
199	0x3d52c6a3	0.051458966

weight f4 [1, 5, 5, 5]
0	0xbd1853ce	-0.037189297
1	0xbb5cdfd5	-0.003370275
2	0xbd573df3	-0.052549314
3	0xbd736b23	-0.059428345
4	0xbb1b2d2d	-0.002367805
5	0x3d8790d5	0.066194214
6	0xbd83c434	-0.06433907
7	0xbd45063b	-0.048101645
8	0xbd8f861a	-0.07008
9	0xbd514582	-0.05109168
10	0x3ce4a32d	0.02790984
11	0x3dabbce5	0.08385638
12	0x3d37ac34	0.04484196
13	0x3cceb489	0.02523257
14	0xbdd1f2b2	-0.102513686
15	0xbcf33b51	-0.02969137
16	0x3ce95cf3	0.028486704
17	0x3d2cb3d0	0.04216367
18	0x3da20f0c	0.07913026
19	0xbdb6b9d7	-0.08922165
20	0xbd8af39a	-0.067847446
21	0x3d8ae807	0.06782537
22	0xbdba486e	-0.09095846
23	0x3d6a6038	0.057220668
24	0xbdc5fd97	-0.09667509
25	0x3d1c9108	0.03822425
26	0x3d916365	0.07099036
27	0x3d7d65a8	0.061864525
28	0x3c3a1431	0.011357353
29	0x3da3a043	0.07989552
30	0xbd39ec2b	-0.045391243
31	0x3da1f6c3	0.07908394
32	0xbbae4006	-0.005317691
33	0xbc81f8a0	-0.015865624
34	0x3cd449e4	0.02591414
35	0xbd0c0a1b	-0.034189325
36	0xbd0ad2cf	-0.03389245
37	0x3d86b49d	0.06577418
38	0xbbfacf62	-0.0076541165
39	0xbd8a54cc	-0.06754455
40	0xbc3aaac9	-0.011393257
41	0x3c1d07df	0.009584396
42	0xbcbddd9d	-0.023176963
43	0xbd85947a	-0.0652246
44	0xbd87f0a6	-0.06637697
45	0xbda02e69	-0.07821352
46	0x3d04286c	0.03226511
47	0xbb8c0d1a	-0.0042740228
48	0xbccb6780	-0.024829626
49	0xbced7aa3	-0.028989142
50	0xbda4279c	-0.080153674
51	0x3d951d11	0.072809346
52	0xbd37c2fd	-0.04486369
53	0xbd91629e	-0.07098888
54	0x3c539475	0.012913813
55	0x3c55febe	0.013061224
56	0x3d86835d	0.06568024
57	0xbd34fdec	-0.04418747
58	0xbd9596f3	-0.07304182
59	0xbd7165d4	-0.058935
60	0xbd5acb69	-0.053416643
61	0x3d87fcd5	0.06640021
62	0xbdae7ad9	-0.08519525
63	0x3a3d518a	0.0007221928
64	0xbd94a71d	-0.07258437
65	0x3cc56283	0.024094826
66	0xbda04158	-0.07824963
67	0x3ca60746	0.02026714
68	0xbd541a85	-0.051783103
69	0xbd754b39	-0.05988619
70	0xbd706b55	-0.05869611
71	0x3c6a1d06	0.014289146
72	0xbd923a00	-0.07139969
73	0x3da0bebc	0.0784888
74	0x3cd4e3d3	0.025987541
75	0x3cb3b848	0.021938458
76	0x3da436a4	0.08018234
77	0x3da8a1c5	0.0823398
78	0x3db6de3e	0.08929108
79	0xbc1f6bf9	-0.0097303325
80	0xbd7f5ac4	-0.06234242
81	0xbda92021	-0.08258081
82	0x3c9bae37	0.01900397
83	0x3d86af11	0.0657636
84	0xbd8d48d5	-0.06898657
85	0x3d7f0a8b	0.062265914
86	0xbc07ddbb	-0.008292611
87	0x3cec5a38	0.028851613
88	0x3c76c975	0.01506268
89	0xbd1ae358	-0.03781447
90	0x3d52df3c	0.051482424
91	0xbd495fc1	-0.049163584
92	0x3cfac07d	0.030609364
93	0x3d80b9a1	0.06285406
94	0x3c8f12d4	0.017465033
95	0xbcfee7ed	-0.03111645
96	0xbd31e584	-0.043431774
97	0xbc696981	-0.0142463455
98	0x3dbb8ad2	0.09157337
99	0x3d679dbd	0.056546915
100	0xbcc71771	-0.02430317
101	0x3db1e08c	0.08685407
102	0xbd61d7b0	-0.055137336
103	0x3c9e499a	0.019322205
104	0xbd8f5266	-0.06998138
105	0xbcf18add	-0.02948516
106	0x3d172dbf	0.03690886
107	0x3d8c31cd	0.06845436
108	0x3b95ddce	0.0045735603
109	0xbd2039f2	-0.03911776
110	0x3a12c84e	0.0005599306
111	0xbc1d5a17	-0.009603999
112	0x3bd35de2	0.0064504007
113	0x3d9fb408	0.0779801
114	0x3cc23c33	0.023710346
115	0x3d259c14	0.04043205
116	0x3d32591b	0.04354201
117	0xbca33793	-0.01992396
118	0xbd24b9a2	-0.040216096
119	0xbd98b46d	-0.074562885
120	0x3c04edc7	0.008113331
121	0x3daf6134	0.08563462
122	0xba8a27f7	-0.0010540475
123	0x3c3b61ea	0.011436919
124	0xbd6bc1cf	-0.057557877

weight f4 [8, 3, 3, 3]
0	0x3c9b4aee	0.018956628
1	0xbdad7b17	-0.08470743
2	0xbe175b5b	-0.14780943
3	0xbe3e0381	-0.18556024
4	0xbe04e854	-0.12979251
5	0xbd056a59	-0.032572124
6	0xbdd55350	-0.10416281
7	0x3e19cd73	0.15019779
8	0x3d48ddfe	0.049039833
9	0x3e2d39f6	0.16916642
10	0xbdf51e8f	-0.11968719
11	0xbe0308df	-0.12796353
12	0x3dd4fe36	0.104000494
13	0x3cb3c30f	0.021943597
14	0xbd087403	-0.033313762
15	0xbe34334b	-0.17597692
16	0xbdb1dff4	-0.08685294
17	0x3d62c034	0.05535908
18	0x3dc651f7	0.09683602
19	0xbdf43f9e	-0.119261965
20	0x3e3a0c4d	0.18168755
21	0x3e21ac5d	0.15788408
22	0xbdad8f6a	-0.0847462
23	0x3e249de8	0.16075861
24	0x3e588203	0.21143346
25	0x3e49a861	0.19693138
26	0x3e4ce0c0	0.2000761
27	0x3dda2172	0.106509104
28	0xbcffa0a8	-0.031204537
29	0x3dd07df8	0.10180277
30	0xbc6b54f0	-0.014363512
31	0x3e52885a	0.20559826
32	0xbdf32a87	-0.11873346
33	0xbc9ce726	-0.019153189
34	0xbd17c520	-0.037053227
35	0x3e0010ac	0.1250636
36	0xbe1aea2e	-0.15128395
37	0x3dbe3cbb	0.09288927
38	0xbe329e28	-0.17443144
39	0x3d3ca89a	0.04605923
40	0x3d862615	0.06550232
41	0xbd6bc432	-0.057560153
42	0xbe17908e	-0.14801237
43	0xbdbb7b38	-0.091543615
44	0xbc2cb3aa	-0.010540882
45	0xbe085392	-0.1331313
46	0x3d3de77f	0.04636335
47	0xbe3ffba8	-0.18748343
48	0x3e30a087	0.17248736
49	0xbd73ac75	-0.05949064
50	0x3dc6b28d	0.097020246
51	0x3e023afa	0.1271781
52	0xbe2379c6	-0.15964422
53	0x3ded8a7c	0.115986794
54	0xbe36d69c	-0.17855304
55	0xbca7cdb9	-0.020483838
56	0xbd3b04da	-0.045658924
57	0x3d159156	0.036515556
58	0xbe1e64c7	-0.15468131
59	0xbdb1e982	-0.08687116
60	0xbe20aad2	-0.15690163
61	0xbcb81502	-0.022470955
62	0x3d6ac4a5	0.05731644
63	0x3dcf4676	0.10120861
64	0x3d270ce1	0.040783767
65	0xbdc4a248	-0.09601265
66	0x3d146e80	0.036238194
67	0x3dde7f85	0.10864166
68	0x3a871944	0.0010307212
69	0x3e431351	0.19050337
70	0xbdd94472	-0.10608758
71	0xbcd0f776	-0.025508624
72	0xbe0e480b	-0.1389467
73	0xbd9b363f	-0.07578706
74	0xbdf60967	-0.12013512
75	0x3c43af06	0.011943584
76	0xbdfe5f0f	-0.12420475
77	0xbdf51858	-0.11967534
78	0xbe17c44b	-0.14820974
79	0x3d80415c	0.06262466
80	0xbe2f648b	-0.17128198
81	0x3d882fad	0.066497184
82	0xbdfb093c	-0.12257621
83	0xbe266c66	-0.16252288
84	0xbd74a362	-0.059726126
85	0xbcb499f1	-0.022046061
86	0x3c3523c5	0.011055891
87	0xbdf4ec4f	-0.11959135
88	0x3e573764	0.21017224
89	0xbd5ac14c	-0.053407
90	0xbbce040b	-0.006287103
91	0x3e4336a5	0.19063814
92	0xbda1fc5f	-0.07909464
93	0xbd980940	-0.07423639
94	0xbdfb0c3a	-0.122581914
95	0xbce024ee	-0.02736136
96	0x3d81b109	0.06332595
97	0xbe0f4450	-0.13990903
98	0xbcace624	-0.021105833
99	0x3e132abc	0.1437177
100	0x3b34f332	0.0027610776
101	0xbda274d7	-0.07932442
102	0x3ca0c482	0.019624952
103	0xbd644ef1	-0.055739347
104	0x3e014554	0.12624103
105	0x3d92b423	0.071632646
106	0xb6d47ea8	-6.332837e-06
107	0x3e056438	0.13026512
108	0x3d4077d6	0.046989284
109	0x3dc35873	0.09538355
110	0x3e3b7507	0.18306361
111	0x3dc29fbd	0.09503124
112	0x3cf25897	0.029583259
113	0x3dffa4e9	0.12482626
114	0x3e34ea59	0.17667522
115	0x3dfef46c	0.124489635
116	0x3d633d6a	0.05547849
117	0xbe29685e	-0.16543719
118	0xbe043a9b	-0.12912981
119	0x3d96eb50	0.07369101
120	0x3dffad99	0.12484283
121	0xbca78461	-0.020448865
122	0xbdd558d9	-0.10417337
123	0x3e4641e0	0.19361067
124	0x3e3cc48b	0.1843435
125	0x3e367a03	0.17819981
126	0x3e27b786	0.16378602
127	0xbe0aef66	-0.13567886
128	0x3e30a591	0.17250659
129	0x3cc80543	0.024416571
130	0x3dd5c245	0.104374446
131	0x3e118af2	0.1421316
132	0x3e381b37	0.17979132
133	0xbc804adc	-0.015660696
134	0x3d89e408	0.06732947
135	0x3dbad3db	0.091224395
136	0xbdeeb6f2	-0.11655988
137	0xbde86ede	-0.11349271
138	0xbd216731	-0.03940505
139	0x3e5c33d0	0.2150414
140	0xbd86c124	-0.065798074
141	0x3e482fc4	0.19549471
142	0xbd9da649	-0.07697732
143	0x3e29ec69	0.1659409
144	0xbd9dfd03	-0.07714274
145	0x3e304213	0.17212705
146	0x3d48e7c0	0.04904914
147	0xbc6330c4	-0.013866607
148	0xbe1b1493	-0.15144567
149	0xbd21cd94	-0.039502695
150	0x3e240282	0.16016582
151	0xbdd208a9	-0.10255558
152	0xbc96f6fd	-0.01842832
153	0xbdb4e68a	-0.08833034
154	0xbcf5d7da	-0.030010153
155	0xbe34f25e	-0.1767058
156	0xbca71d51	-0.020399721
157	0xbe24b764	-0.16085583
158	0x3d2a9334	0.04164429
159	0xbe3cb49c	-0.18428272
160	0x3dc12d7b	0.09432503
161	0xbe1bce36	-0.15215382
162	0x3d95e0fa	0.073183015
163	0xbd76daad	-0.06026714
164	0xbd9868c3	-0.07441857
165	0xbcf6106b	-0.030037126
166	0x3c0c3c27	0.008559263
167	0xbb19fd99	-0.0023497103
168	0xbcffb353	-0.031213438
169	0xbe048628	-0.12941802
170	0x3e1679e4	0.14694935
171	0x3e309984	0.17246062
172	0xbe30680c	-0.1722719
173	0x3d3aba1c	0.045587644
174	0xbe201343	-0.15632348
175	0xbd026025	-0.03182997
176	0xbd7f2712	-0.06229312
177	0xbdb2e5b5	-0.087352194
178	0xbe13887d	-0.14407535
179	0xbce20519	-0.027590321
180	0xbbc62a02	-0.006047488
181	0xbdbb4341	-0.09143687
182	0x3cb84aab	0.022496542
183	0x3cd841eb	0.02639862
184	0xbd995acb	-0.074880205
185	0xbe185d3b	-0.14879315
186	0x3c8c7ded	0.01714989
187	0x3e25532a	0.16145006
188	0xbdacbe43	-0.08434727
189	0x3def4f18	0.11685008
190	0xbcd962b6	-0.026536327
191	0x3e4601ac	0.19336575
192	0x3e2263b1	0.15858342
193	0xbd60a5f2	-0.054845758
194	0xbdb215dd	-0.08695576
195	0xbe047af7	-0.12937532
196	0x3cbac207	0.022797598
197	0x3e472ae0	0.1944995
198	0x3b608f52	0.0034265113
199	0xbd69189d	-0.05690824
200	0xbda3c035	-0.07995645
201	0x3d6edf13	0.05831821
202	0x3dbff354	0.09372583
203	0x3d98f61b	0.07468816
204	0xbda486bc	-0.08033511
205	0xbe362309	-0.17786802
206	0xbe2bdeb1	-0.16784169
207	0xbd554fc9	-0.052078042
208	0x3b8f743f	0.0043778713
209	0xbd9ff6dc	-0.078107566
210	0xbddfccdb	-0.10927745
211	0xbd586729	-0.052832756
212	0xbd795d20	-0.060879827
213	0x3e2d0561	0.16896583
214	0xbe548670	-0.20754409
215	0x3e15d919	0.14633597

bias f4 [8]
0	0x3df5b75f	0.11997866
1	0x3db033b1	0.08603609
2	0xbd86ecd3	-0.065881394
3	0x3d0d5665	0.03450622
4	0xbd7af76b	-0.061271112
5	0xbe1ba8c5	-0.15201099
6	0x3ce3fd68	0.027830794
7	0xbd2aab13	-0.041667055

weight f4 [1, 8, 3, 3]
0	0xbd5c47a4	-0.05377926
1	0xbd0213a1	-0.031757
2	0xbe0944b1	-0.1340511
3	0xbdfa8da3	-0.12234046
4	0xbd7ef928	-0.062249333
5	0xbdffe17f	-0.12494182
6	0x3be9489f	0.007119253
7	0x3d60f4b0	0.054920852
8	0xbc8f933d	-0.017526263
9	0x3cce3360	0.025170982
10	0x3e0e2cc2	0.13884261
11	0x3df4bcfc	0.119501084
12	0x3dc7e614	0.09760681
13	0x3d794d22	0.060864575
14	0xbdb596f7	-0.08866685
15	0x3d858c3b	0.065208875
16	0x3ba6fff9	0.0050964323
17	0x3c86e2a3	0.01646549
18	0x3da7a12e	0.081850395
19	0xbe155cea	-0.14586225
20	0xbda84d7e	-0.082179055
21	0xbda5e467	-0.08100205
22	0x3d77709a	0.06041012
23	0x3d8e09c7	0.06935459
24	0x3c9138fd	0.01772737
25	0x3da5f652	0.081036225
26	0xbc11f348	-0.0089081
27	0x3d4a3543	0.0493672
28	0x3d963482	0.07334234
29	0xbd8fef17	-0.07028025
30	0x3a693da2	0.00088974286
31	0x3da6dead	0.08147941
32	0x3d3c7e8c	0.046019122
33	0xbdeaf495	-0.114724316
34	0x3c7d0aa2	0.01544443
35	0xbd2e0be1	-0.042491797
36	0xbd4aef58	-0.049544662
37	0x3cccb5f9	0.024989115
38	0x3cf40836	0.029789072
39	0xbd706180	-0.058686733
40	0x3da9105f	0.08255076
41	0xbbcfd2fd	-0.0063422904
42	0x3c92cd63	0.017920202
43	0x3d982ae3	0.07430055
44	0x3ce535db	0.027979782
45	0xbc31258c	-0.0108121745
46	0x3cce4f2f	0.025184242
47	0xbd16db0c	-0.036829993
48	0x3c9c56dd	0.019084388
49	0x3d95d67f	0.073163025
50	0x3de01e31	0.109432586
51	0x3d3d9ad5	0.046290237
52	0x3b18d022	0.0023317416
53	0x3d048fa6	0.032363556
54	0x3d8d2956	0.0689265
55	0x3d8b7564	0.068095
56	0xbdba3659	-0.09092397
57	0xbd83ccc2	-0.06435539
58	0x3d5eab4a	0.054362573
59	0x3d88c6d2	0.06678547
60	0x3d7d17ca	0.061790265
61	0xbcad065d	-0.021121198
62	0x3d8d5744	0.0690141
63	0x3e0b42bc	0.13599676
64	0x3d0710a6	0.03297486
65	0x3d104027	0.03521743
66	0xbd94b516	-0.07261102
67	0x3da591ac	0.08084425
68	0x3df0805d	0.11743233
69	0xbda9605c	-0.08270332
70	0x3d8051f0	0.06265628
71	0xbc4dc13c	-0.012558278
